backend/models/model_state_dict.pth (torch, 119327 bytes, 6 tensors)

layer_1.weight f4 [64, 384]
-0.12312384 -0.035235323 -0.018033687 -0.086945094 0.01542525 0.0034842577 -0.049556527 -0.062088244
-0.026733216 0.025359428 -0.008542296 0.1013813 0.023245338 0.010700902 0.019966705 -0.052218296
-0.022553 -0.07870994 -0.04326176 -0.14179604 -0.15750094 -0.082186826 -0.00835879 0.05321362
0.15785424 -0.006413092 -0.035095647 -0.10946293 0.11103346 -0.068965174 -0.066074885 0.16587381
0.019586891 0.025835732 -0.119883716 0.0717074 -0.071609706 0.13528709 -0.102442235 -0.03799966
-0.029255241 -0.025809938 0.100408934 0.029994715 -0.107255936 -0.047850527 0.0029149314 0.065785155
-0.19554701 -0.013691571 -0.003370913 -0.006194674 0.037502747 -0.016267829 -0.053289972 0.058677122
0.09340189 -0.05398747 0.030341545 0.080566086 -0.02649971 -0.08902512 -0.12453782 -0.02512534
0.058386505 0.0015995963 0.0018372734 -0.0001486354 0.023321478 0.03496642 0.058272544 -0.0005860477
-0.050560318 0.051606093 0.002572784 -0.020906983 -0.049221095 0.09144221 0.11052085 -0.04365962
0.04809197 -0.03820109 -0.10650323 0.024866307 -0.013947707 0.0052182963 0.013852531 -0.017683152
0.12292302 0.101379715 0.020775372 -0.045600656 -0.04567517 0.017134652 0.0091606155 0.071955085
0.001577627 0.09234285 0.056582447 0.09432123 -0.046657607 0.0432703 -0.101815626 -0.0014401398
-0.03302298 -0.1286077 0.028595448 0.035198625 0.11241726 0.006665495 -0.016263533 0.0078122574
0.038769003 0.01201073 -0.0366623 -0.01940892 -0.027414318 -0.039367512 0.004889946 -0.03356708
9.254812e-06 0.064296365 -0.067991614 0.010983953 0.014310307 -0.047492173 -0.014177292 0.0146274865
0.117368065 -0.04105661 0.08899308 0.12134086 0.062297575 -0.08894899 -0.023477834 0.062449034
-0.045428112 -0.053611495 -0.06324668 0.081109256 0.017430078 0.00034840888 -0.0007946414 -0.037392363
-0.0012393179 0.07176447 -0.056017872 0.07543724 0.1334346 -0.05757723 -0.02937807 -0.0045728805
-0.007439803 -0.09294975 -0.02152308 0.07888179 0.06477713 0.08393879 0.07042947 0.010466927
-0.08749439 -0.11785851 -0.04672608 0.0027268908 0.06940582 -0.17311013 0.086077675 -0.046999488
-0.02100965 0.14650592 -0.0806655 -0.10307514 -0.05629137 0.08462555 0.012162754 0.0124626
-0.08993015 0.014604724 -0.027902426 0.061291277 0.031650987 0.004817312 -0.030091329 0.13122152
0.058477774 -0.010774367 -0.042114843 0.058035165 -0.06411612 0.014021127 -0.078357436 0.08883088
-0.10731353 0.046138518 -0.068287924 -0.012466342 0.07379171 0.05569628 0.014426963 -0.012616387
-0.023207918 -0.07650858 0.0049618636 -0.05329338 0.049069654 0.005714717 0.094650805 -0.04978116
0.069468476 0.053282127 -0.18827425 -0.003896281 0.09488925 0.16052528 0.0345722 -0.1199144
-0.069734 0.016555836 -0.11301422 0.046314012 -0.05385731 0.011313597 0.03706465 -0.015261288
-0.07919474 -0.03554786 -0.07289666 -0.008893934 0.07975678 0.06326547 0.008906775 -0.014090086
-0.018741984 0.07218732 -0.03434679 -0.1094382 0.06875256 -0.050488714 -0.049540166 -0.025388254
0.02263792 0.04038286 -0.040582657 0.08702338 0.0599258 0.018932488 -0.04668942 -0.023038289
0.12921056 0.09904979 -0.09516499 0.068372436 0.04049097 0.031369872 -0.054867767 -0.14128046
00000000: 5a28 fcbd ea52 10bd 62bb 93bc 4510 b2bd
00000010: 30ba 7c3c 2558 643b c9fb 4abd 3e50 7ebd
00000020: 9eff dabc 93be cf3c fcf4 0bbc 00a1 cf3d
00000030: 026d be3c d652 2f3c 3791 a33c dae2 55bd
00000040: 12c1 b8bc ad32 a1bd 3e33 31bd fb32 11be
00000050: ed47 21be 9151 a8bd 4ef3 08bc 86f6 593d
00000060: 8ba4 213e ea24 d2bb 74c0 0fbd 1a2e e0bd
00000070: 8365 e33d 9d3d 8dbd 4552 87bd d3da 293e
00000080: b074 a03c 75a5 d33c 9885 f5bd 54db 923d
00000090: 1ca8 92bd b388 0a3e 3ccd d1bd 88a5 1bbd
000000a0: b0a8 efbc 5d6f d3bc 33a3 cd3d 7ab7 f53c
000000b0: 00a9 dbbd eafe 43bd 6f08 3f3b 5eba 863d
000000c0: 7a3d 48be 9c52 60bc 89ea 5cbb b1fc cabb
000000d0: 7b9c 193d 1c44 85bc 9646 5abd 6c57 703d
000000e0: 7d49 bf3d f721 5dbd d58e f83c d5ff a43d
000000f0: eb15 d9bc cd52 b6bd af0d ffbd a8d3 cdbc
00000100: b026 6f3d 8ca9 d13a aad0 f03a 03db 1bb9
00000110: af0c bf3c f338 0f3d 31af 6e3d ffa0 19ba
00000120: 5618 4fbd e960 533d 279c 283b 1f45 abbc
00000130: 0f9c 49bd 0e46 bb3d c158 e23d 6ed4 32bd
00000140: 16fc 443d bf78 1cbd 5e1e dabd 6db4 cb3c
00000150: ec84 64bc 3efe aa3b baf5 623c 42dc 90bc
00000160: 10bf fb3d 2ba0 cf3d 1d31 aa3c c1c7 3abd
00000170: e315 3bbd f85d 8c3c 6816 163c 305d 933d
00000180: 61c8 ce3a 401e bd3d ffc2 673d 7d2b c13d
00000190: 0c1c 3fbd 333c 313d b684 d0bd 13c3 bcba
000001a0: 1b43 07bd bdb1 03be 0041 ea3c 6f2c 103d
000001b0: 053b e63d 3a6a da3b 1a3b 85bc f7fd ff3b
000001c0: 3fcc 1e3d a7c8 443c 352b 16bd 75ff 9ebc
000001d0: fe93 e0bc d43f 21bd d73b a03b a27d 09bd
000001e0: 1d45 1b37 d0ad 833d 303f 8bbd 0af6 333c
000001f0: c775 6a3c 2787 42bd df47 68bc 20a8 6f3c
00000200: ab5e f03d fa2a 28bd 0142 b63d 8f81 f83d
00000210: be2b 7f3d e32a b6bd 9654 c0bc 8fca 7f3d
00000220: d412 3abd ba97 5bbd 7a87 81bd 9c1c a63d
00000230: 86c9 8e3c a6aa b639 7b4f 50ba bc28 19bd
00000240: 9c70 a2ba 40f9 923d ff72 65bd d77e 9a3d
00000250: 14a3 083e 1ad6 6bbd 47aa f0bc 1ad8 95bb
00000260: 97c9 f3bb 705c bebd 2c51 b0bc c78c a13d
00000270: dfa9 843d 1ae8 ab3d 533d 903d 797d 2b3c
00000280: 4230 b3bd cd5f f1bd d963 3fbd a3b5 323b
00000290: a324 8e3d c843 31be 7e49 b03d 8982 40bd
000002a0: 6e1c acbc a605 163e f433 a5bd 0f19 d3bd
000002b0: c891 66bd 2950 ad3d 4a46 473c ef2f 4c3c
000002c0: 4c2d b8bd a748 6f3c a193 e4bc 900c 7b3d
000002d0: 77a4 013d 8bda 9d3b 1782 f6bc ef5e 063e
000002e0: 6486 6f3d f886 30bc 9d80 2cbd 48b6 6d3d
000002f0: 504f 83bd deb8 653c dd79 a0bd f7ec b53d
00000300: 32c7 dbbd befb 3c3d 8ada 8bbd a13f 4cbc
00000310: 1c20 973d c821 643d 125f 6c3c f6b4 4ebc
00000320: 881e bebc 88b0 9cbd 2197 a23b 294a 5abd
00000330: 43fd 483d 8542 bb3b 48d8 c13d 54e7 4bbd
00000340: 7d45 8e3d 5c3e 5a3d f7ca 40be bf58 7fbb
00000350: 4c55 c23d bd60 243e 949b 0d3d ae95 f5bd
00000360: b3d0 8ebd 1ba0 873c 0074 e7bd c3b3 3d3d
00000370: 7c99 5cbd aa5c 393c 1ad1 173d 7b0a 7abc
00000380: da30 a2bd a29a 11bd d84a 95bd ddb7 11bc
00000390: 8657 a33d 5491 813d b9ed 113c 1bda 66bc
000003a0: ca88 99bc f2d6 933d 38af 0cbd 2321 e0bd
000003b0: 24ce 8c3d 41cd 4ebd a1ea 4abd 07fb cfbc
000003c0: 2973 b93c 7f68 253d 003a 26bd 5039 b23d
000003d0: c174 753d 4e18 9b3c 683d 3fbd cbba bcbc
000003e0: c64f 043e 9eda ca3d dde5 c2bd d906 8c3d
000003f0: dcd9 253d b27d 003d 06bd 60bd d3ab 10be

layer_1.bias f4 [64]
0.02767593 0.11540462 0.07747479 0.0700654 0.09632658 0.009392742 0.1564682 -0.009055903
0.027437972 0.076702304 0.06708059 -0.0049013724 0.1543224 0.22010197 0.2342594 0.052714314
0.09145413 0.23442425 0.21373105 0.09839518 0.07314421 0.14205422 0.14662312 0.0506892
0.04642715 0.13780457 0.10341721 0.16864361 0.1415547 0.075053945 0.100704804 0.066006556
0.061452005 0.06201327 0.056620628 0.13127217 0.033920843 0.08123039 0.14237931 0.020960238
0.049913906 0.05607397 0.11184412 0.10520422 0.23231846 0.025820816 0.04233991 0.04428332
0.03314379 0.061992288 0.26076013 0.073261425 0.07224527 0.066470295 0.13443717 0.074151084
0.04214135 0.029373119 0.068969004 0.023693431 0.11857195 0.024349429 0.11807147 0.1907806
00000000: a2b8 e23c 4259 ec3d 1aab 9e3d 737e 8f3d
00000010: df46 c53d 04e4 193c 3339 203e 365f 14bc
00000020: 99c5 e03c 1916 9d3d 8c61 893d b19b a0bb
00000030: b106 1e3e 6962 613e b2e1 6f3e f7ea 573d
00000040: 4e4c bb3d e90c 703e 50dc 5a3e 6a83 c93d
00000050: a2cc 953d a976 113e 5f24 163e 7b9f 4f3d
00000060: 652a 3e3d a41c 0d3e 67cc d33d e9b0 2c3e
00000070: b7f3 103e e2b5 993d 523e ce3d 722e 873d
00000080: 19b5 7b3d a001 7e3d 08eb 673d 366c 063e
00000090: 95f0 0a3d 1e5c a63d e2cb 113e ceb4 ab3c
000000a0: 8672 4c3d d2ad 653d 880e e53d 4f75 d73d
000000b0: e4e4 6d3e 2d86 d33c 9d6c 2d3d 6d62 353d
000000c0: c8c1 073d a0eb 7d3d 5a82 853e 160a 963d
000000d0: 54f5 933d 9421 883d e6a9 093e 86dc 973d
000000e0: 699c 2c3d e59f f03c 9f3f 8d3d ba18 c23c
000000f0: dad5 f23d 7478 c73c 74cf f13d fd5b 433e

layer_2.weight f4 [64, 64]
0.16727275 0.26604125 -0.13502863 -0.08926439 -0.079984024 -0.21944176 -0.24445024 0.29562715
-0.055037674 0.11875526 -0.19793293 -0.043725904 0.15601104 -0.061953943 0.1858254 -0.11708885
-0.11459486 0.23936176 0.080202505 -0.36697042 -0.0011002887 0.038980342 0.03982262 -0.035749346
0.07330701 0.16861326 -0.007244357 0.12337651 -0.43930465 0.070331305 -0.17919964 0.38642016
-0.13466413 -0.115350485 0.08554385 0.12184313 -0.29277223 -0.07891355 0.29436487 0.3332216
-0.21119273 -0.16055259 0.038286213 0.15050924 0.14363766 -0.5782379 0.28516763 0.2575301
0.014371125 0.07797251 0.20925225 0.2451855 0.23478587 0.099731125 -0.028609514 0.025023678
-0.08508125 -0.17541277 0.03663656 -0.1090237 -0.062171742 -0.11439749 -0.11723632 0.0841134
-0.23372278 -0.013339697 0.18983394 0.081011064 0.10140392 0.26266268 0.03133336 -0.2123445
0.21634866 -0.021650026 0.26377615 0.23523393 -0.012944989 -0.055606782 0.047914315 0.08042497
0.10932636 0.039572615 0.15296209 0.38482267 -0.02125231 0.097364455 0.060305305 0.24289736
-0.19164547 0.14914179 0.05607327 -0.04373846 0.16412534 0.08223653 0.19150552 -0.071079426
0.31215003 0.08769867 0.037454285 0.03782585 0.46751863 0.17537081 -0.14394693 -0.34900865
0.37024578 -0.12959649 0.06408443 0.04725386 0.061639953 0.47340173 -0.27778527 -0.075596675
0.07242878 0.23423216 -0.021236723 -0.109702066 -0.15057677 -0.21065201 -0.0066568963 0.16116996
0.3327895 0.23483227 0.3389832 0.15722327 0.13162877 0.33850697 0.12655848 0.18160537
-0.2374829 -0.07194657 0.25779408 0.1591297 0.04041926 0.23949505 -0.007248036 -0.05859064
0.1258033 0.19785039 0.1772225 0.014563012 0.21961308 0.011924551 0.033218108 0.0016950996
0.16687132 0.005037094 0.011866122 0.466217 0.1600083 0.03678761 0.14858879 0.16449109
-0.114605986 -0.026868077 0.11735402 0.13789837 0.030441437 0.1275589 0.050164424 -0.05528113
0.1039755 0.22167188 -0.010644544 0.17468376 0.35955152 0.092950225 -0.061683495 -0.22532815
0.4804332 -0.037753545 0.1517908 -0.10487283 -0.107968174 0.53113884 -0.25880924 -0.1732885
0.20795286 0.024128217 -0.082149 -0.20384842 -0.081704125 -0.17370541 0.20217548 -0.03301214
0.35324544 0.10938507 0.21806945 0.24917984 0.13878213 0.27719012 0.08246219 0.18852037
0.07498688 -0.06261631 0.1616918 -0.11874724 0.044231784 0.076651976 0.33719918 -0.11513779
0.16829784 0.00907458 0.043253344 0.10418324 -0.10883623 0.18647456 -0.20021795 0.1951501
0.052767165 -0.05472773 -0.13687699 0.44229734 -0.060185365 -0.042545915 0.012292882 0.15152778
0.047003485 -0.062015858 -0.05299249 -0.08026817 0.40465838 0.018233644 0.0690157 0.018694429
0.0399984 -0.061953876 0.05023287 -0.0821722 0.1726812 0.02408893 -0.041351885 -0.03484259
0.19986688 0.31363562 0.11640097 -0.042687137 0.16342472 0.3304186 0.08048319 -0.0055651157
0.029693684 0.09512956 -0.15246421 0.08780795 0.030707058 0.09379248 0.063395575 -0.10408176
0.017923502 0.28344476 0.07707722 0.004213477 0.17542356 0.19198117 0.08492712 0.03010886
00000000: 8c49 2b3e 8f36 883e f244 0abe 40d0 b6bd
00000010: aace a3bd 57b5 60be 2a51 7abe 715c 973e
00000020: 2f6f 61bd f535 f33d eeae 4abe ef19 33bd
00000030: 5cc1 1f3e 6bc3 7dbd 0349 3e3e 47cc efbd
00000040: b6b0 eabd 401b 753e 3641 a43d 8ce3 bbbe
00000050: 9037 90ba daa9 1f3d 0b1d 233d e86d 12bd
00000060: fc21 963d f4a8 2c3e 1262 edbb d3ac fc3d
00000070: 8aec e0be dc09 903d 1c80 37be ddd8 c53e
00000080: 65e5 09be e03c ecbd 9d31 af3d e488 f93d
00000090: 3ee6 95be 6d9d a1bd feb6 963e 069c aa3e
000000a0: e842 58be e667 24be 01d2 1c3d 181f 1a3e
000000b0: c015 133e 6607 14bf 7e01 923e fcda 833e
000000c0: de74 6b3c 0db0 9f3d 3946 563e e811 7b3e
000000d0: b56b 703e d53f cc3d 805e eabc 75fe cc3c
000000e0: 143f aebd 689f 33be 3810 163d d147 dfbd
000000f0: cca7 7ebd 3b49 eabd 9919 f0bd a543 ac3d
00000100: 0655 6fbe bf8e 5abc d463 423e 21e9 a53d
00000110: dcac cf3d b97b 863e 6957 003d d670 59be
00000120: 818a 5d3e 655b b1bc ab0d 873e 2ae1 703e
00000130: 3817 54bc f0c3 63bd cd41 443d d9b5 a43d
00000140: 80e6 df3d e516 223d 18a2 1c3e 7a07 c53e
00000150: 5319 aebc 0467 c73d b202 773d 16ba 783e
00000160: b63e 44be a0b8 183e 16ad 653d 1927 33bd
00000170: 7910 283e a06b a83d 061a 443e 1792 91bd
00000180: 21d2 9f3e 5c9b b33d aa69 193d 47ef 1a3d
00000190: 9a5e ef3e 6894 333e d366 13be 43b1 b2be
000001a0: db90 bd3e f1b4 04be b33e 833d 438d 413d
000001b0: 2d7a 7c3d b661 f23e df39 8ebe 6ed2 9abd
000001c0: 8a55 943d 8eda 6f3e a3f8 adbc 7aab e0bd
000001d0: cc30 1abe 29b5 57be 1822 dabb bd09 253e
000001e0: 6363 aa3e df77 703e 358f ad3e 23ff 203e
000001f0: b1c9 063e c950 ad3e 8c98 013e c2f6 393e
00000200: b82e 73be b958 93bd 96fd 833e e5f2 223e
00000210: aa8e 253d 313e 753e ef80 edbb bdfc 6fbd
00000220: 95d2 003e 4b99 4a3e d179 353e b399 6e3c
00000230: 40e2 603e 315f 433c b60f 083d 1b2e de3a
00000240: 51e0 2a3e 350e a53b 1f6a 423c ffb3 ee3e
00000250: 37d9 233e 9bae 163d a927 183e 5a70 283e
00000260: 8bb6 eabd 711a dcbc 4e57 f03d 3b35 0d3e
00000270: 5260 f93c cd9e 023e 3679 4d3d 776e 62bd
00000280: 1bf1 d43d f4fd 623e 7466 2ebc 4de0 323e
00000290: 2317 b83e b05c be3d d5a7 7cbd 6cbc 66be
000002a0: 57fb f53e 76a3 1abd 0c6f 1b3e 91c7 d6bd
000002b0: 6b1e ddbd b7f8 073f a582 84be 8a72 31be
000002c0: 98f1 543e 8aa8 c53c bc3d a8bd a4bd 50be
000002d0: 7e54 a7bd d5df 31be 1707 4f3e bd37 07bd
000002e0: 96dc b43e 4805 e03d 994d 5f3e 0029 7f3e
000002f0: e71c 0e3e ddeb 8d3e f0e1 a83d 7c0b 413e
00000300: b992 993d fb3c 80bd 8992 253e c131 f3bd
00000310: 632c 353d b6fb 9c3d 5fa5 ac3e 5dcd ebbd
00000320: 4556 2c3e 8cad 143c 6b2a 313d 065e d53d
00000330: 88e5 debd 30f3 3e3e ef05 4dbe 6ed5 473e
00000340: 6222 583d 2f2a 60bd 7b29 0cbe cc74 e23e
00000350: ee84 76bd a044 2ebd 1668 493c 192a 1b3e
00000360: ba86 403d 5704 7ebd a70e 59bd a363 a4bd
00000370: 622f cf3e b95e 953c 1a58 8d3d 0f25 993c
00000380: 5dd5 233d 59c3 7dbd fbc0 4d3d e649 a8bd
00000390: 57d3 303e 2656 c53c 9860 29bd 1bb7 0ebd
000003a0: e7a9 4c3e d994 a03e a263 ee3d b5d8 2ebd
000003b0: cf58 273e a02c a93e 5fd4 a43d 935b b6bb
000003c0: 2b40 f33c 49d3 c23d 941f 1cbe a8d4 b33d
000003d0: 5e8d fb3c 4616 c03d 8ad5 813d d128 d5bd
000003e0: 4fd4 923c ac1f 913e a9da 9d3d 3511 8a3b
000003f0: 3ca2 333e b696 443e 45ee ad3d dba6 f63c

layer_2.bias f4 [64]
0.1708505 0.021178123 0.12776123 0.08824275 0.18949574 0.05479202 0.13183454 0.17757986
0.055221755 0.07046893 -0.08669769 0.041560493 -0.09041269 -0.038417503 0.0075165597 0.106308125
0.108453095 0.031556394 0.06315331 0.032458086 0.02057314 -0.047751628 0.05415673 -0.11368442
-0.12312801 0.14247383 0.05130609 0.11130538 -0.029274223 0.016915219 0.0021475584 -0.1405323
0.08482816 0.1077282 -0.12349939 0.0064643864 -0.022357183 0.08552701 -0.018186215 -0.025067808
0.0016293222 0.11213888 0.17985642 -0.049964555 0.15268455 0.12972641 0.23269328 0.006839313
0.0062301066 0.12874083 0.111442104 -0.09240675 0.06074581 0.1086433 0.18351318 0.15320784
0.12373336 -0.07984732 -0.020322263 -0.09607278 0.041758858 0.09633911 0.08363585 0.2122128
00000000: 6ff3 2e3e be7d ad3c d7d3 023e 9db8 b43d
00000010: 2c0b 423e 996d 603d a2ff 063e 7fd7 353e
00000020: 3530 623d 0452 903d 8f8e b1bd 563b 2a3d
00000030: 4a2a b9bd ac5b 1dbd 794d f63b 13b8 d93d
00000040: a81c de3d 4741 013d 8656 813d c5f2 043d
00000050: 0089 a83c 3697 43bd 73d3 5d3d 61d3 e8bd
00000060: 8a2a fcbd a9e4 113e 5626 523d 13f4 e33d
00000070: 7fd0 efbc c991 8a3c 0dbe 0c3b b3e7 0fbe
00000080: 63ba ad3d 9aa0 dc3d 40ed fcbd 34d3 d33b
00000090: 6926 b7bc c928 af3d 42fb 94bc 015b cdbc
000000a0: fb8e d53a 12a9 e53d 482c 383e a2a7 4cbd
000000b0: 5759 1c3e 00d7 043e 2647 6e3e 511c e03b
000000c0: ec25 cc3b a3d4 033e c23b e43d c03f bdbd
000000d0: 99d0 783d 6180 de3d e1ea 3b3e 84e2 1c3e
000000e0: ea67 fd3d fe86 a3bd e07a a6bc cec1 c4bd
000000f0: 560b 2b3d 704d c53d 4649 ab3d 504e 593e

output_layer.weight f4 [7, 64]
0.22557813 -0.08156241 -0.19328822 -0.22000042 0.22827023 -0.08571993 -0.22771841 -0.21621606
-0.055410918 -0.121877536 0.081164114 0.3110832 -0.075772524 -0.20488916 -0.011499494 0.07361594
0.008429994 0.07135375 0.03579067 -0.17134951 -0.027253782 0.08898317 0.056416 -0.11482904
-0.10109198 0.09452605 -0.22205852 0.0980591 -0.31347045 0.1952214 0.075017445 -0.09004729
-0.17969856 -0.05235518 0.09483342 -0.057459116 -0.22288561 -0.10252933 0.04993259 -0.06571458
-0.1293674 -0.229709 0.23295113 -0.17345162 -0.30960503 -0.07689289 0.0872458 -0.124081455
0.2938293 0.17968634 0.11547656 0.09787798 -0.032704733 -0.005440313 -0.33825526 -0.18930638
-0.23109429 -0.20400585 -0.08579035 0.019594058 0.0040319944 -0.20192514 0.37886086 -0.09649715
0.21045247 -0.30872935 -0.15890463 -0.28779903 -0.13058549 -0.325856 0.09226422 0.16184092
0.066380545 -0.0868772 0.11378659 -0.2898208 0.044046074 -0.21386275 -0.23665154 -0.3672259
0.10709845 0.15428779 0.19336456 0.10051377 -0.21556003 0.20952296 -0.2118232 0.011605551
0.12378034 -0.24958065 -0.15330493 0.38432258 -0.1372541 -0.16830723 -0.15321179 -0.04274598
0.049144693 -0.009815729 0.003184259 0.1584848 -0.04001487 0.3134003 -0.097585656 -0.017362053
0.026322275 -0.004993221 -0.38541168 -0.14465497 -0.08756276 0.1908193 -0.047286447 -0.30006185
-0.24723579 0.2706988 -0.25899312 -0.07655462 0.19988076 0.058949567 -0.1978675 0.28864154
-0.30169928 -0.50075424 0.108998135 -0.068137884 -0.1965649 -0.047696326 -0.21875304 0.13131207
-0.26100105 -0.34457332 -0.4627573 0.29805332 -0.49074623 -0.30106205 -0.40481845 0.28863758
0.38677204 -0.26190293 -0.061189227 0.15852134 0.02616629 0.18184774 -0.4434339 0.32375053
-0.4099062 -0.3437489 -0.3127396 -0.21132353 0.34696057 -0.33132243 -0.38569704 -0.12406547
0.09022947 -0.51589334 -0.16211641 -0.39095452 0.15865776 -0.38715404 -0.50256807 -0.104337476
-0.10651695 -0.43139553 0.08038449 -0.48375526 -0.14657502 0.16863205 0.06669244 0.08222925
0.31243947 0.15094504 0.21178098 -0.16003202 0.20262897 -0.16992523 0.13822772 0.14492933
-0.419749 -0.0823043 -0.54169106 -0.08042913 -0.33478564 0.08848562 0.20815423 0.2438537
-0.24631916 -0.20133846 0.08192724 0.116059035 -0.4403775 0.21853119 0.15108764 0.19974466
-0.3124743 0.3342396 0.19742212 0.042079125 0.14831327 0.095808834 0.1522786 -0.3008879
-0.17675391 0.16108207 0.07747778 -0.1621216 -0.08514762 0.042653464 0.05767623 0.0039929473
0.088181905 -0.32877725 0.03452426 0.20373794 0.10099763 0.052309103 0.06395755 0.01679324
0.07708156 0.081620365 0.3361588 -0.32570606 0.07097517 0.15633781 0.19825314 0.08856597
0.1766004 0.18425575 -0.012670964 0.067130245 0.30631614 -0.34249395 0.103574045 -0.12574817
-0.16705766 0.23737323 -0.24371362 0.124578774 0.2255565 0.14441234 -0.026479654 0.2814425
-0.2648554 -0.30526102 0.084064916 0.05564713 0.03487656 0.17330946 0.23219268 -0.13509117
0.38735086 0.21329348 0.09852873 0.06783956 0.2836784 0.21028085 -0.31231296 -0.012147769
00000000: f4fd 663e 310a a7bd 59ed 45be ca47 61be
00000010: acbf 693e ee8d afbd 042f 69be be67 5dbe
00000020: 8ff6 62bd ee9a f9bd 5f39 a63d 4c46 9f3e
00000030: a02e 9bbd 77ce 51be 6068 3cbc f4c3 963d
00000040: f51d 0a3c ea21 923d 3d99 123d 3f76 2fbe
00000050: 5343 dfbc cf3c b63d 7714 673d 7d2b ebbd
00000060: 5009 cfbd e096 c13d 4f63 63be 36d3 c83d
00000070: 337f a0be 1ee8 473e bfa2 993d b76a b8bd
00000080: e602 38be 6372 56bd 0638 c23d 405a 6bbd
00000090: 203c 64be e6fa d1bd 1e86 4c3d 5e95 86bd
000000a0: e378 04be d638 6bbe be8a 6e3e 4d9d 31be
000000b0: 8d84 9ebe 057a 9dbd edad b23d 6b1e febd
000000c0: cb70 963e b2ff 373e fa7e ec3d 4074 c83d
000000d0: 66f5 05bd a744 b2bb cb2f adbe 88d9 41be
000000e0: fba3 6cbe e9e6 50be dab2 afbd b883 a03c
000000f0: d21e 843b 77c5 4ebe 0dfa c13e 4ca0 c5bd
00000100: da80 573e c611 9ebe e5b7 22be 655a 93be
00000110: 34b8 05be 99d6 a6be 06f5 bc3d a0b9 253e
00000120: 86f2 873d acec b1bd f208 e93d 6463 94be
00000130: a869 343d d6fe 5abe c854 72be 0805 bcbe
00000140: 6f56 db3d 9efd 1d3e 5c01 463e 2ada cd3d
00000150: c5bb 5cbe 308d 563e 2ee8 58be 3525 3e3c
00000160: 8c80 fd3d 1292 7fbe f8fb 1cbe eec5 c43e
00000170: 578c 0cbe bb58 2cbe 8de3 1cbe 6916 2fbd
00000180: f24b 493d 27d2 20bc 00af 503b d749 223e
00000190: a2e6 23bd 0176 a03e fdda c7bd dd3a 8ebc
000001a0: d0a1 d73c 2c9e a3bb ae54 c5be 6f20 14be
000001b0: 1b54 b3bd 2266 433e 6faf 41bd b5a1 99be
000001c0: 612b 7dbe 0899 8a3e bf9a 84be abc8 9cbd
000001d0: 8bad 4c3e 1a75 713d c79d 4abe d3c8 933e
000001e0: 5478 9abe 6e31 00bf 6a3a df3d e08b 8bbd
000001f0: 4f48 49be 395d 43bd cc00 60be ac76 063e
00000200: eea1 85be ea6b b0be 86ee ecbe 729a 983e
00000210: 1743 fbbe ce24 9abe 5d44 cfbe 4ec8 933e
00000220: fc06 c63e 2418 86be 8ea1 7abd 6b53 223e
00000230: b05a d63c 4b36 3a3e c509 e3be a1c2 a53e
00000240: 3adf d1be dbff afbe 681f a0be 3265 58be
00000250: d1a4 b13e 18a3 a9be 157a c5be 0a16 febd
00000260: 3aca b83d 9611 04bf d801 26be 312b c8be
00000270: 2e77 223e 0e39 c6be 4da8 00bf e3ae d5bd
00000280: 8f25 dabd e0df dcbe a0a0 a43d c5ae f7be
00000290: c317 16be e1ad 2c3e 0c96 883d cf67 a83d
000002a0: 11f8 9f3e 5691 1a3e 1ddd 583e 6fdf 23be
000002b0: f87d 4f3e e100 2ebe 918b 0d3e 5b68 143e
000002c0: 57e9 d6be 288f a8bd 44ac 0abf 07b8 a4bd
000002d0: 0669 abbe f337 b53d 6226 553e c9b4 793e
000002e0: 173b 7cbe ab2b 4ebe 78c9 a73d 5cb0 ed3d
000002f0: 2979 e1be a4c6 5f3e b8b6 1a3e dd89 4c3e
00000300: a2fc 9fbe 7421 ab3e 0629 4a3e 295b 2c3d
00000310: 6fdf 173e 6c37 c43d ecee 1b3e fb0d 9abe
00000320: fafe 34be b3f2 243e acac 9e3d 3403 26be
00000330: e061 aebd 66b5 2e3d e93d 6c3d 45d7 823b
00000340: b798 b43d 7e55 a8be 4f69 0d3d aea0 503e
00000350: d8d7 ce3d 1242 563d 2dfc 823d fa91 893c
00000360: f0dc 9d3d 9428 a73d 021d ac3e f2c2 a6be
00000370: 6e5b 913d 0517 203e df02 4b3e 1362 b53d
00000380: bcd6 343e 8aad 3c3e e099 4fbc 957b 893d
00000390: 78d5 9c3e 5e5b afbe a11e d43d 21c4 00be
000003a0: 2a11 2bbe f811 733e 1090 79be 2823 ff3d
000003b0: 48f8 663e d4e0 133e dceb d8bc 3b19 903e
000003c0: 219b 87be 2c4b 9cbe 3a2a ac3d 3fee 633d
000003d0: b9da 0e3d 0978 313e ebc3 6d3e 5755 0abe
000003e0: da52 c63e 9b69 5a3e 6ec9 c93d 78ef 8a3d
000003f0: 4c3e 913e dd53 573e 7ce7 9fbe 7007 47bc

output_layer.bias f4 [7]
-0.008836619 0.057101656 0.050224986 -0.10076921 -0.71552634 -0.66204715 -0.68275476
00000000: 77c7 10bc 6de3 693d b7b8 4d3d 1660 cebd
00000010: bc2c 37bf ec7b 29bf 04c9 2ebf
